models/task_classifier.pth (torch, 932899 bytes, 14 tensors)

net.0.weight f4 [256, 768]
0	0x3db0ab28	0.086263955
1	0x3bab30de	0.0052243313
2	0x3d691093	0.056900572
3	0xbc5aef0b	-0.013362656
4	0x3d8e0563	0.06934621
5	0x3d8061ae	0.06268631
6	0x3bb25922	0.0054427544
7	0xbe1734c4	-0.14766222
8	0x3c97101f	0.018440304
9	0x3d15ea43	0.036600363
10	0x3d0558ab	0.032555263
11	0xbd06fbf1	-0.032955114
12	0xbcdb8f37	-0.026801689
13	0xbd3966e6	-0.045264147
14	0xbd739ed3	-0.05947764
15	0x3e3627de	0.17788646
16	0x3cbca2bd	0.023026818
17	0x3d3e2d3b	0.046429854
18	0x3da83cda	0.082147315
19	0x3d7e9e1f	0.062162515
20	0x3e14d1b1	0.14533116
21	0x3d89838a	0.06714542
22	0x3dd1d3a0	0.102454424
23	0x3db94df0	0.090480685
24	0x3cda454b	0.02664437
25	0x3dc86e60	0.09786677
26	0x3e01ecd6	0.12688002
27	0xbdbcf3fa	-0.09226222
28	0x3d64e0ee	0.055878572
29	0xbc8b0031	-0.016967865
30	0x3d9c7932	0.07640304
31	0xbd7b0854	-0.06128724
32	0xbd6ae681	-0.057348732
33	0xbda3dcca	-0.080010965
34	0xbd36bbce	-0.0446127
35	0x3bee5519	0.007273328
36	0x3d4e6cbc	0.050396666
37	0xbd77cc17	-0.06049737
38	0xbe151cfe	-0.14561841
39	0xbd0efe04	-0.034910217
40	0xbd93bb9e	-0.072135195
41	0xbd9d6bb2	-0.07686557
42	0xbd87b880	-0.066269875
43	0xbcd7a99d	-0.026325995
44	0xbce81d73	-0.028334355
45	0x3c993cd4	0.018705763
46	0xbda65d72	-0.08123292
47	0x3bbe500f	0.0058078836
48	0x3d6ce415	0.057834703
49	0x3d729882	0.059227474
50	0xbd47fd48	-0.048825532
51	0x3cf2cc85	0.029638538
52	0x3dd08c9a	0.101830676
53	0xbdf53d09	-0.11974532
54	0xbc2c5077	-0.010517231
55	0xbd54f134	-0.05198784
56	0x3c7f0406	0.015564924
57	0x3d91897d	0.07106302
58	0xbcd32b69	-0.025777536
59	0xbc16a2d4	-0.009194095
60	0xbdee5d73	-0.11638918
61	0xbcecdc0f	-0.028913526
62	0x3abacdc8	0.0014252001
63	0xbb299577	-0.0025876442
64	0xbde60311	-0.112310536
65	0xbcb6b8cf	-0.02230492
66	0x3da4775b	0.08030578
67	0x3e0fa8a8	0.14029181
68	0x3d6c594a	0.05770234
69	0xbcd7ce8e	-0.02634361
70	0xbd83e215	-0.06439606
71	0xbd1e22dc	-0.038607463
72	0x3d81a93f	0.06331109
73	0xbd8a0bda	-0.06740542
74	0xbd1955e9	-0.037435446
75	0x3d578693	0.052618574
76	0x3bf2c33a	0.0074085267
77	0x3c6418e4	0.01392195
78	0xbd55aaac	-0.05216472
79	0xba548b2c	-0.00081078964
80	0xbc60de16	-0.013724824
81	0x3d93a8c8	0.07209927
82	0x3bc77626	0.0060870824
83	0xbdf5124d	-0.11966381
84	0xbd3a22df	-0.045443412
85	0xbc19f4d6	-0.009396752
86	0xbde2cdaf	-0.11074387
87	0xbd0a0645	-0.033697385
88	0x3d4c0250	0.049806893
89	0xbc8731e2	-0.016503278
90	0x3c427533	0.011868763
91	0xbcdc9ee3	-0.026931232
92	0xbc960694	-0.018313684
93	0x3d2d70a5	0.042343754
94	0xbbbeec36	-0.0058264984
95	0xbc8d8207	-0.017273916
96	0x3dec0b90	0.11525643
97	0xbde68618	-0.11256045
98	0x3d72d375	0.059283692
99	0xbe26330c	-0.1623041
100	0xbe4179c7	-0.1889411
101	0x3d98935d	0.07449982
102	0x3db704a8	0.08936435
103	0xbd40619c	-0.046968088
104	0xbc9179db	-0.0177583
105	0x3df4f0cd	0.119599916
106	0x3dc2dd86	0.095149085
107	0xbd9c5be7	-0.076347165
108	0xbd08f13c	-0.033433184
109	0xbd445a03	-0.047937404
110	0xbe1eeac3	-0.15519242
111	0x3cd5e290	0.02610901
112	0x3c01206c	0.007881265
113	0xbd9f723c	-0.0778546
114	0x3d217a31	0.03942317
115	0x3d45f472	0.048328824
116	0xbc27a484	-0.010232095
117	0xbc9da7f1	-0.01924512
118	0xbd579218	-0.05262956
119	0xbd99b07e	-0.07504366
120	0xbc8a496c	-0.016880713
121	0xbdb734b6	-0.08945601
122	0xbd8c4297	-0.068486385
123	0x3d400199	0.046876524
124	0x3db62536	0.08893816
125	0x3da3413f	0.07971429
126	0x3e1a0305	0.15040214
127	0xbceafedb	-0.028685978
128	0xbdc75f14	-0.097349316
129	0xbc1a551e	-0.009419708
130	0x3db800ef	0.08984553
131	0x3d71633b	0.058932524
132	0x3dc8b2a3	0.09799697
133	0x3d2ec9a4	0.04267277
134	0xbc3ef5b1	-0.011655257
135	0x3d7d97f8	0.061912507
136	0xbd5cfc7f	-0.053951737
137	0xbd640b84	-0.055675045
138	0x3d8963ed	0.067085125
139	0xbd81a88f	-0.06330978
140	0xbe19ef85	-0.15032776
141	0x3da8e96f	0.08247649
142	0x3d2cfcfc	0.042233452
143	0xbdccee78	-0.10006422
144	0xbe0f2f3c	-0.13982862
145	0x3e0f541f	0.13996933
146	0xbda5b458	-0.080910385
147	0xbdcbcbb5	-0.099509634
148	0xbd7f93a5	-0.062396664
149	0x3ca0e93c	0.019642465
150	0xba8d379c	-0.0010774019
151	0xbdb66ccf	-0.08907472
152	0x3d8ac8c8	0.06776577
153	0xbda88371	-0.082281955
154	0xbcdb6935	-0.026783565
155	0xbdf22408	-0.11823279
156	0x3c856ebf	0.01628816
157	0x3d2e8955	0.04261144
158	0xbd9b1995	-0.07573239
159	0x3d7c8fdc	0.061660632
160	0xbd8a7247	-0.06760078
161	0x3d27fe0a	0.041013755
162	0x3d4488ef	0.047982153
163	0x3cfaa81f	0.030597745
164	0xbda5e0fc	-0.08099553
165	0xbd7e0c60	-0.06202352
166	0x3de4290d	0.11140642
167	0x3df3c9db	0.11903735
168	0xbc4e51b8	-0.012592725
169	0xbda8061b	-0.082042895
170	0xbce7f0a7	-0.028312994
171	0xb9d9f9f7	-0.00041575704
172	0xbcc4cc6d	-0.024023259
173	0x3ddf7df6	0.10912697
174	0xbd29fb4e	-0.04149943
175	0xbc67b1b8	-0.014141493
176	0xbd927cfe	-0.071527466
177	0xbd8321a2	-0.06402899
178	0x3bfd3989	0.007727806
179	0xbde0bd17	-0.10973566
180	0xbdf4015a	-0.1191432
181	0x3dbdbf36	0.09264986
182	0x3d55ffb7	0.05224582
183	0xbd180225	-0.03711142
184	0xbc835f71	-0.016036721
185	0xbdb81cff	-0.089899056
186	0x3d8b9db8	0.06817192
187	0x3e318396	0.17335352
188	0x3cde139e	0.027108964
189	0x3d2acd69	0.0416998
190	0xbe080ec2	-0.1328688
191	0x3d35b5c4	0.0443628
192	0xbdc042bd	-0.09387729
193	0x3dca271e	0.09870742
194	0x3d7a5926	0.061120175
195	0xbda88026	-0.082275674
196	0x3ce554b2	0.027994487
197	0x3db19904	0.086717635
198	0x3dc8b933	0.09800949
199	0xbdb63156	-0.08896129
200	0xbd2693a0	-0.04066813
201	0xbc1bc6d7	-0.009507856
202	0x3d2c6289	0.042086158
203	0xbdd505eb	-0.104015194
204	0x3dca9df9	0.09893412
205	0x3c64eae4	0.013972018
206	0xbd935096	-0.07193105
207	0xbd1be686	-0.03806164
208	0x3d79d9c3	0.06099869
209	0x3c1e21c4	0.009651605
210	0xbd1fb1fd	-0.038988102
211	0xbb236cbb	-0.0024936635
212	0xbdaab5f6	-0.083354875
213	0xbcdd2b12	-0.026998077
214	0x3d6c6909	0.057717357
215	0x3d5ca0d2	0.053864308
216	0xbd304879	-0.043037865
217	0xbcc843c6	-0.02444638
218	0x3c7883dc	0.0151681565
219	0x3db485f3	0.08814611
220	0x3d10b4f9	0.03532884
221	0xbda1f5b9	-0.07908196
222	0xbe4cee84	-0.20012861
223	0xbcf1a89c	-0.029499345
224	0xbcad8d56	-0.021185558
225	0xbd7eee95	-0.06223925
226	0x3cd73522	0.026270453
227	0xbc42dd9a	-0.011893654
228	0xbbe4998c	-0.006976312
229	0xbd6b9a72	-0.057520337
230	0xbda3a05d	-0.07989571
231	0xbc688f31	-0.014194296
232	0xbc8da541	-0.017290713
233	0xbe114100	-0.14184952
234	0xbdaa6d49	-0.08321626
235	0x3c941d6d	0.018080438
236	0xbc44c948	-0.01201088
237	0xbcd8425a	-0.026398826
238	0xbc23d2aa	-0.009998957
239	0x3d4797c9	0.048728738
240	0xbc053341	-0.008129896
241	0xbd6cb710	-0.05779177
242	0xbe2e716a	-0.17035452
243	0x3dbe5a36	0.0929455
244	0x3db34c21	0.08754755
245	0xbcd62813	-0.026142156
246	0xbd8368fc	-0.064165086
247	0xbd8eb9f7	-0.06969064
248	0xbc8c96ac	-0.01716169
249	0x3d306cfd	0.04307269
250	0x3cb8bb4b	0.022550246
251	0xbd5b7d08	-0.053586036
252	0xbd2c91a6	-0.04213109
253	0x3decc3d0	0.11560786
254	0x3d080b0c	0.03321366
255	0xbd83e4d5	-0.064401306

net.0.bias f4 [256]
0	0x3c46b2ca	0.012127588
1	0xbc81a400	-0.015825272
2	0xbce4c02d	-0.027923668
3	0x3bd28219	0.0064242003
4	0x3ca2fe68	0.019896701
5	0x3ce7d2ee	0.028298821
6	0xbc412331	-0.011788175
7	0xbce8858a	-0.028383989
8	0x3c9cb010	0.019126922
9	0xbcd8fcd8	-0.026487753
10	0x3c0642d9	0.008194649
11	0x3bcaa6d5	0.0061844387
12	0xbbdd356a	-0.006750752
13	0x39c8a4fa	0.0003826989
14	0xbc1f6640	-0.009728968
15	0xbbf509de	-0.007477983
16	0x3d004cad	0.031323124
17	0xbbbc29b2	-0.005742275
18	0x3cc11b04	0.023572452
19	0xbc633832	-0.0138683785
20	0xbd14734c	-0.03624277
21	0xbca8ba44	-0.02059663
22	0x3c716db9	0.014735633
23	0xbcbb35e7	-0.022852851
24	0x3d0fce94	0.035109118
25	0x3caf2368	0.021379188
26	0x3c5c5efb	0.0134503795
27	0x3c56ddf8	0.013114445
28	0xbcbb65db	-0.022875717
29	0x3c7e879c	0.0155352615
30	0xbc408abb	-0.011751826
31	0xbd4a2961	-0.04935587
32	0xbcddb8c8	-0.02706565
33	0xbcf959b7	-0.030438287
34	0x3cb81dd6	0.022475164
35	0xbc83aae8	-0.016072705
36	0x3d8a4988	0.06752306
37	0xbd09aa2d	-0.033609558
38	0xbc84e0cf	-0.016220478
39	0x3a667283	0.0008790867
40	0x3bb0a043	0.0053901984
41	0xbbeb4595	-0.0071799257
42	0x3c66950e	0.014073623
43	0xbb3c2836	-0.002871049
44	0xbb8f5a84	-0.004374804
45	0x3b948ed3	0.0045336275
46	0xbb83fd34	-0.004027987
47	0xbbb8d42d	-0.0056405277
48	0xbc4f6ff9	-0.012660974
49	0xbced3e2f	-0.028960316
50	0x3d1e6251	0.03866798
51	0x3cac34fe	0.021021362
52	0x3d53755e	0.051625602
53	0x3cd590dd	0.026070053
54	0xbd55f7c9	-0.05223826
55	0x3c8113d7	0.01575653
56	0xbd125cf6	-0.035733186
57	0x3cb938c1	0.02261007
58	0x3c2057ec	0.009786587
59	0xbc49099d	-0.012270358
60	0xbc62a70b	-0.013833771
61	0x3d366fda	0.044540264
62	0xb9778635	-0.00023605752
63	0x39b1a252	0.0003388101
64	0xbc7d5032	-0.015461015
65	0xbca05e25	-0.019576142
66	0x3be6b240	0.007040292
67	0x3b96dbe4	0.0046038497
68	0x3c6d514b	0.014484714
69	0xbd0ab253	-0.03386147
70	0x3b2f982e	0.0026793587
71	0x3d20ea46	0.03928592
72	0x3c2aa386	0.010414964
73	0x3cc4fa82	0.024045233
74	0x3d0ba490	0.034092486
75	0xbccb2e5a	-0.024802376
76	0x3cb04611	0.021517785
77	0xbb88c439	-0.004173782
78	0xbc8ccdd1	-0.017187985
79	0xbce786e4	-0.028262563
80	0xb9384184	-0.00017572014
81	0xbced8925	-0.02899606
82	0xbd49df74	-0.049285367
83	0x3d4eeb2a	0.05051724
84	0x3b362400	0.0027792454
85	0xbd162f50	-0.036666214
86	0x3c3afa29	0.011412182
87	0xbcabdfed	-0.0209808
88	0xbc292bd0	-0.010325387
89	0x3c527511	0.012845294
90	0xbcf2a91b	-0.029621651
91	0xbcd2d3ce	-0.025735762
92	0x3ca8249f	0.020525275
93	0xbbce7858	-0.006300967
94	0x3d032055	0.032013256
95	0xbce04f02	-0.027381424
96	0x3c5a74db	0.013333525
97	0x3c9e1cf8	0.019300923
98	0x3d049fb7	0.03237888
99	0xbd145719	-0.036215875
100	0x3cea9576	0.028635722
101	0x3c0dfad9	0.008665764
102	0xbd2fea5d	-0.042948116
103	0x3b77fe52	0.0037840796
104	0x3c6dfdc5	0.014525835
105	0xbba0a15d	-0.0049020485
106	0x3ca378c9	0.019955056
107	0x3c4f29c6	0.012644237
108	0x3c311781	0.010808826
109	0xbbe44577	-0.0069662887
110	0xbce0e669	-0.027453618
111	0xbcd2152d	-0.025644863
112	0xbd812d7c	-0.063075036
113	0x3d357797	0.044303503
114	0xbbda7368	-0.0066665895
115	0x3c28fae4	0.010313723
116	0xbc62e73d	-0.013849077
117	0xbd54e1bd	-0.051973093
118	0xbb80c5ad	-0.003929815
119	0xbb0768d0	-0.0020661838
120	0xbca53945	-0.02016891
121	0xbc209630	-0.0098014325
122	0x3b8a79ae	0.004225931
123	0x3c83941d	0.016061837
124	0xbd430d00	-0.04761982
125	0x3c98ba10	0.018643409
126	0xbbecc00b	-0.0072250417
127	0xbca82782	-0.020526651
128	0x3ca5637b	0.020189038
129	0xbcb9e9b9	-0.022694455
130	0xbc95bef0	-0.018279523
131	0x3c929113	0.017891442
132	0x3d2f6249	0.04281834
133	0xbd2bbf35	-0.041930396
134	0xbcc6ea8b	-0.02428176
135	0xbbfc8d15	-0.007707248
136	0xbcd5d7f7	-0.026103957
137	0x3c5528b6	0.0130101945
138	0xbceb6b98	-0.028737828
139	0x3a714e19	0.0009205058
140	0x3ca3bac7	0.019986523
141	0x3d2f391c	0.042779073
142	0x3d49bbbe	0.04925131
143	0xbc35b127	-0.0110896
144	0xbad1feaf	-0.0016021336
145	0xbc962a3b	-0.018330684
146	0x3b8c51cb	0.0042822114
147	0xbc8fad80	-0.017538786
148	0x3c4ffaa5	0.012694036
149	0xbcf1851f	-0.029482422
150	0xbbbdab85	-0.005788269
151	0x3d4639ed	0.048395086
152	0x3c3df7a4	0.011594687
153	0xbd39cd5b	-0.045361858
154	0xbcc7c803	-0.024387365
155	0xbcf90a28	-0.03040035
156	0xbc180dab	-0.009280602
157	0x3d0e9a74	0.034815267
158	0xbd848bc0	-0.06471968
159	0x3d613e82	0.054991253
160	0xbd213519	-0.03935728
161	0x3bd6ec26	0.006558913
162	0x3c849415	0.016183892
163	0xbc98ed81	-0.018667938
164	0xbccd4478	-0.025057063
165	0x3d11f4e9	0.035633955
166	0xbd04f244	-0.032457605
167	0xbc056648	-0.0081420615
168	0xbd1f658a	-0.038915195
169	0xbceb152d	-0.02869662
170	0x3bd17081	0.0063915853
171	0xb9e077e2	-0.0004281393
172	0x3d57dd3a	0.052701212
173	0x3c310dad	0.010806483
174	0x3c813c33	0.015775776
175	0xbad73eed	-0.0016421952
176	0x3cacd3e4	0.021097131
177	0x3d049581	0.03236914
178	0xbc646b41	-0.013941587
179	0x39d2c702	0.00040202594
180	0xbd4944a0	-0.04913771
181	0xbcbcb09b	-0.02303343
182	0xbd40ca75	-0.047068078
183	0x3cfb56c1	0.030681016
184	0x3c5ab0b3	0.013347792
185	0xbbfd449b	-0.0077291257
186	0x3c3ee07e	0.011650203
187	0x3c057ca0	0.008147389
188	0xbc8a2d00	-0.01686716
189	0xbc8818eb	-0.016613444
190	0x3cda3312	0.02663568
191	0x3bc739fc	0.0060799103
192	0xbc1774d5	-0.0092441635
193	0x3cb98be3	0.022649711
194	0x3cd1c8ae	0.025608387
195	0x3d231459	0.039814327
196	0xbcc12663	-0.023577875
197	0xbc052996	-0.008127591
198	0x3cb089fb	0.02155017
199	0xbca7a866	-0.02046604
200	0x3cae326a	0.021264274
201	0x3c504400	0.012711525
202	0xbc9ccc23	-0.019140309
203	0xbc6d7c52	-0.014494972
204	0x3c85ea64	0.016347118
205	0xbcdca4b0	-0.026933998
206	0xbc9be531	-0.019030185
207	0x3d0062fd	0.031344403
208	0xbcb69a9b	-0.022290519
209	0x3cf8644f	0.030321268
210	0x3c9d2fea	0.019187886
211	0xbc865309	-0.016397016
212	0x3c5d557f	0.013509153
213	0xbd114a6c	-0.035471365
214	0xbb84d7c7	-0.004054043
215	0x3d00b88c	0.031425998
216	0x3c9fb152	0.019493733
217	0xbac85279	-0.0015283368
218	0xbb85a073	-0.004077965
219	0xbba33b97	-0.004981469
220	0x3ca586c5	0.020205865
221	0x3b475007	0.003041269
222	0x3ceb1884	0.028698213
223	0xbcff4ba8	-0.031164005
224	0x3c276ecc	0.010219287
225	0xbbe2568c	-0.00690729
226	0x3d3f65b6	0.04672786
227	0x3d1ba2a1	0.037996892
228	0x3c988919	0.01862006
229	0xbc54939e	-0.012974648
230	0x3c21cc8d	0.009875429
231	0x3d1926f9	0.037390683
232	0x3d0099d5	0.031396706
233	0xbc523b2f	-0.012831493
234	0xbd23c65e	-0.0399841
235	0xbcaa1b46	-0.020764958
236	0xbd0f1268	-0.034929663
237	0x3c0b3f24	0.008498941
238	0x3cb26cda	0.02178042
239	0x3d0d1bbb	0.034450274
240	0x3c91211a	0.01771598
241	0xbccb552b	-0.024820885
242	0xbb24a7e5	-0.0025124487
243	0xbcc1003a	-0.023559678
244	0x3c9c4394	0.019075193
245	0xbc0a771e	-0.008451251
246	0x3c98fd2f	0.018675415
247	0x3d1c970d	0.03822999
248	0xbccab9e1	-0.024746837
249	0x3c58a0a1	0.013221891
250	0xbcb273ac	-0.021783672
251	0x3c9eef6e	0.019401278
252	0x3c47c3f9	0.01219272
253	0xbc30b7ad	-0.010785979
254	0x3c21f61c	0.009885337
255	0xbc275d91	-0.010215179

net.1.weight f4 [256]
0	0x3f6cbf4a	0.92479384
1	0x3f72bbb8	0.94817686
2	0x3f7cc164	0.9873259
3	0x3f61bf7d	0.8818281
4	0x3f77b7ad	0.9676464
5	0x3f622180	0.88332367
6	0x3f66f036	0.9021028
7	0x3f831834	1.0241761
8	0x3f658cdd	0.89668065
9	0x3f663610	0.8992624
10	0x3f61f961	0.88271147
11	0x3f61c1b8	0.88186216
12	0x3f61f827	0.88269275
13	0x3f6dcf87	0.92894787
14	0x3f5dfe05	0.8671573
15	0x3f73e782	0.9527513
16	0x3f6eea02	0.9332582
17	0x3f6fb0cd	0.9362915
18	0x3f3f00ea	0.7461077
19	0x3f60f66c	0.8787601
20	0x3f72fd34	0.9491761
21	0x3f6cdf43	0.9252817
22	0x3f66afd8	0.90112066
23	0x3f6de057	0.9292044
24	0x3f7a0e98	0.9767852
25	0x3f67f2fa	0.9060513
26	0x3f77aa2f	0.96744055
27	0x3f69b51a	0.91291964
28	0x3f76cd25	0.96406776
29	0x3f51d671	0.81967837
30	0x3f7bf863	0.98425883
31	0x3f5dde0c	0.8666694
32	0x3f804c26	1.0023239
33	0x3f64ff2f	0.8945188
34	0x3f6a1f75	0.9145425
35	0x3f6452c6	0.891888
36	0x3f770245	0.9648784
37	0x3f5ba65d	0.85800725
38	0x3f680fdd	0.90649205
39	0x3f6dbda5	0.928675
40	0x3f67e27e	0.90579975
41	0x3f6e4fbb	0.9309041
42	0x3f6d0560	0.92586327
43	0x3f6a8e76	0.9162363
44	0x3f79b49c	0.97541213
45	0x3f830ce1	1.0238305
46	0x3f7e5655	0.9935048
47	0x3f433ee1	0.7626782
48	0x3f838e29	1.0277759
49	0x3f68fd11	0.9101115
50	0x3f81036f	1.0079173
51	0x3f63b30f	0.88945097
52	0x3f736f34	0.9509156
53	0x3f6fb324	0.9363272
54	0x3f69b534	0.9129212
55	0x3f6d8ba3	0.92791194
56	0x3f6e8a09	0.93179375
57	0x3f7a8d3e	0.9787177
58	0x3f7b8bc5	0.98260146
59	0x3f6e9362	0.9319364
60	0x3f6da14d	0.9282425
61	0x3f6ce6b7	0.9253954
62	0x3f390156	0.72267663
63	0x3f5af2fc	0.85527015
64	0x3f6bf1bd	0.9216574
65	0x3f49336c	0.7859409
66	0x3f5ebbe7	0.87005466
67	0x3f79aa8c	0.9752586
68	0x3f5bec86	0.8590778
69	0x3f5dadbc	0.8659322
70	0x3f7c03c9	0.98443276
71	0x3f51bd92	0.81929886
72	0x3f6488c1	0.8927117
73	0x3f5dfbf1	0.8671256
74	0x3f6606e3	0.8985426
75	0x3f75a9e5	0.95962363
76	0x3f7424cf	0.95368665
77	0x3f537c6e	0.8261174
78	0x3f68f408	0.9099736
79	0x3f7b7f11	0.9824076
80	0x3f58363c	0.84457755
81	0x3f6edbb5	0.93303996
82	0x3f84ecd3	1.0384773
83	0x3f5a97d9	0.8538795
84	0x3f4b923f	0.7952003
85	0x3f69cbac	0.91326404
86	0x3f6f5648	0.9349103
87	0x3f61e445	0.88238937
88	0x3f73f3e7	0.9529404
89	0x3f6bfb0d	0.9217995
90	0x3f698267	0.91214603
91	0x3f6126eb	0.8795001
92	0x3f56a87c	0.83850837
93	0x3f6794fc	0.9046171
94	0x3f4bdd89	0.7963491
95	0x3f755ca8	0.9584451
96	0x3f5feb87	0.8746876
97	0x3f71418d	0.9424065
98	0x3f66145a	0.89874804
99	0x3f6a758f	0.9158563
100	0x3f68ec29	0.9098535
101	0x3f63cf7c	0.8898847
102	0x3f5b19a9	0.8558603
103	0x3f66744d	0.9002121
104	0x3f5315ad	0.8245495
105	0x3f6bdc33	0.9213287
106	0x3f695faa	0.91161597
107	0x3f5b8069	0.85742813
108	0x3f511a09	0.8168035
109	0x3f7590e1	0.9592419
110	0x3f39c1b6	0.72561204
111	0x3f4a3cd1	0.7899905
112	0x3f6e5da8	0.9311166
113	0x3f8464ff	1.0343322
114	0x3f6b0d7b	0.91817445
115	0x3f6fbe47	0.93649715
116	0x3f7994de	0.9749278
117	0x3f72c24c	0.94827724
118	0x3f5a1ec6	0.85203207
119	0x3f6ad2bc	0.91727805
120	0x3f6a61fd	0.9155577
121	0x3f4e09d0	0.8048372
122	0x3f4ab3d5	0.7918065
123	0x3f70c269	0.94046646
124	0x3f7b5629	0.98178345
125	0x3f7d5c92	0.98969376
126	0x3f61031c	0.8789537
127	0x3f4fea74	0.8121712
128	0x3f4f2d9d	0.80928975
129	0x3f72da9f	0.9486484
130	0x3f713a8c	0.9422996
131	0x3f5f69f1	0.8727103
132	0x3f752352	0.9575702
133	0x3f72b74f	0.94810957
134	0x3f7a914a	0.97877944
135	0x3f724fee	0.94653213
136	0x3f5cdcb3	0.8627426
137	0x3f5c9d02	0.86177075
138	0x3f832d7a	1.0248253
139	0x3f6d3a3a	0.9266697
140	0x3f610557	0.8789877
141	0x3f5f271a	0.8716904
142	0x3f75bb3e	0.95988834
143	0x3f747aa3	0.9549963
144	0x3f6048fa	0.87611353
145	0x3f70173a	0.9378544
146	0x3f6b00af	0.9179792
147	0x3f6c3bfd	0.92279035
148	0x3f69c806	0.91320837
149	0x3f788dee	0.9709157
150	0x3f5fb91e	0.8739184
151	0x3f78a761	0.971304
152	0x3f6f7042	0.93530667
153	0x3f7c2ed5	0.9850896
154	0x3f57b621	0.8426228
155	0x3f55bd65	0.8349212
156	0x3f62b8ce	0.8856324
157	0x3f702db4	0.9381974
158	0x3f68f21f	0.9099445
159	0x3f6c6bad	0.923518
160	0x3f5b67d3	0.857053
161	0x3f68f12b	0.90992993
162	0x3f78b1d2	0.9714633
163	0x3f5f322d	0.8718594
164	0x3f7669de	0.9625529
165	0x3f6b4453	0.9190113
166	0x3f5e0528	0.8672662
167	0x3f56df89	0.8393484
168	0x3f6ab84a	0.9168745
169	0x3f70459e	0.9385623
170	0x3f783665	0.96958
171	0x3f6ae458	0.91754675
172	0x3f57bbfc	0.84271216
173	0x3f5e0ef0	0.8674154
174	0x3f7a5b1f	0.9779529
175	0x3f6b56c4	0.9192927
176	0x3f7ebe9e	0.9950961
177	0x3f682e17	0.9069533
178	0x3f68c432	0.9092437
179	0x3f6ffc56	0.9374441
180	0x3f70576e	0.9388341
181	0x3f5a3047	0.85229915
182	0x3f67f9ed	0.9061573
183	0x3f7664c1	0.9624749
184	0x3f6a6f10	0.9157572
185	0x3f7f99e3	0.9984419
186	0x3f6cf185	0.9255603
187	0x3f599a5a	0.85001147
188	0x3f64c63c	0.8936498
189	0x3f744c95	0.95429355
190	0x3f744b5a	0.9542748
191	0x3f63c7c1	0.88976675
192	0x3f4fbefc	0.81150794
193	0x3f650954	0.8946736
194	0x3f6583ab	0.89654034
195	0x3f7862b3	0.97025603
196	0x3f73894c	0.95131373
197	0x3f6a5108	0.91529894
198	0x3f5e22af	0.8677167
199	0x3f80e110	1.0068684
200	0x3f5eed92	0.87081254
201	0x3f66a89c	0.9010103
202	0x3f6f7a3c	0.9354589
203	0x3f719fc2	0.94384396
204	0x3f70db52	0.94084656
205	0x3f758929	0.95912415
206	0x3f60f304	0.8787081
207	0x3f62851b	0.8848435
208	0x3f709a15	0.9398511
209	0x3f65b561	0.8972989
210	0x3f6d05f1	0.9258719
211	0x3f7290a8	0.9475198
212	0x3f6834c4	0.90705514
213	0x3f6d02d6	0.9258245
214	0x3f64ed6b	0.8942477
215	0x3f5c2bad	0.86004144
216	0x3f730570	0.9493017
217	0x3f719873	0.94373244
218	0x3f574a80	0.8409805
219	0x3f6d032e	0.92582977
220	0x3f6c1427	0.9221825
221	0x3f6a252c	0.9146297
222	0x3f548a29	0.83023316
223	0x3f67d299	0.9055572
224	0x3f80ee36	1.0072696
225	0x3f7bcedc	0.9836252
226	0x3f802506	1.0011299
227	0x3f7e4c2a	0.9933497
228	0x3f6c4570	0.92293453
229	0x3f801ead	1.0009362
230	0x3f6c3765	0.92272025
231	0x3f71dae1	0.9447461
232	0x3f5e70df	0.8689098
233	0x3f39a84e	0.7252244
234	0x3f8054d5	1.0025889
235	0x3f63716e	0.88844955
236	0x3f62fd1a	0.8866745
237	0x3f691eb1	0.91062456
238	0x3f7519d1	0.9574252
239	0x3f705be8	0.9389024
240	0x3f7b96f3	0.98277205
241	0x3f68b0f2	0.90895
242	0x3f717690	0.94321537
243	0x3f64e379	0.89409596
244	0x3f5c55e7	0.86068577
245	0x3f463671	0.7742682
246	0x3f7ebc57	0.99506134
247	0x3f65bb59	0.89738995
248	0x3f62fb76	0.8866495
249	0x3f5cfdb5	0.86324626
250	0x3f671adb	0.90275353
251	0x3f5f74a4	0.87287354
252	0x3f41513f	0.75514597
253	0x3f69a88d	0.91272813
254	0x3f81146e	1.008436
255	0x3f8089e9	1.0042087

net.1.bias f4 [256]
0	0xbe3ddb78	-0.18540752
1	0xbe519bba	-0.20469561
2	0xbe330d45	-0.1748553
3	0xbe1571f0	-0.14594245
4	0xbd8c56f7	-0.06852525
5	0xbe3759ba	-0.17905322
6	0xbd99859f	-0.07496189
7	0xbe5f597d	-0.21811481
8	0xbdf759e0	-0.12077689
9	0xbe0e10b0	-0.13873553
10	0xbe46a853	-0.19400148
11	0xbe425b92	-0.18980244
12	0xbe1bb6e5	-0.15206487
13	0xbd791982	-0.06081534
14	0xbe547d72	-0.20750979
15	0xbe505f49	-0.20348848
16	0xbe52bc44	-0.2057963
17	0xbd69f5c5	-0.05711915
18	0xbe443f6f	-0.19164823
19	0xbe3b6a88	-0.18302357
20	0xbe304320	-0.17213106
21	0xbe6c79e9	-0.2309338
22	0xbe44aab7	-0.19205748
23	0xbe15f289	-0.14643301
24	0xbdeb17fd	-0.11479185
25	0xbe4326e3	-0.19057803
26	0xbe30fc79	-0.1728381
27	0xbde09ab4	-0.10967007
28	0xbdcd8d60	-0.10036731
29	0xbe4b4ee1	-0.19854309
30	0xbda40c6f	-0.08010184
31	0xbe234eab	-0.15947978
32	0xbe185465	-0.14875944
33	0xbea86616	-0.32890385
34	0xbe5990d9	-0.21246661
35	0xbe47d618	-0.19515264
36	0xbe2125c7	-0.15737067
37	0xbe09ec4e	-0.1346905
38	0xbe2a6950	-0.16641736
39	0xbe4bb787	-0.19894229
40	0xbe53038a	-0.20606819
41	0xbe2d7493	-0.16939001
42	0xbe723848	-0.23654282
43	0xbe2bf9ae	-0.16794464
44	0xbe5e7787	-0.21725284
45	0xbe4e6b09	-0.20158018
46	0xbe3ecf4b	-0.18633763
47	0xbe893f8a	-0.2680629
48	0xbe3303d8	-0.17481935
49	0xbe587a2e	-0.21140358
50	0xbe0b7d6c	-0.13622063
51	0xbdefbc34	-0.11705819
52	0xbdf5c845	-0.12001089
53	0xbe2fe019	-0.1717533
54	0xbe675bad	-0.22593565
55	0xbe44f34e	-0.19233438
56	0xbe3ef845	-0.18649395
57	0xbdaf428d	-0.085576154
58	0xbe148eba	-0.14507571
59	0xbdaf762d	-0.08567462
60	0xbe2858a0	-0.16440058
61	0xbe39c42f	-0.18141244
62	0xbe58f7f6	-0.2118834
63	0xbd845f37	-0.06463473
64	0xbe3e75fe	-0.18599698
65	0xbe2fbe98	-0.1716255
66	0xbe03921e	-0.12848708
67	0xbe2d14f2	-0.16902521
68	0xbe63539a	-0.2219986
69	0xbde75c85	-0.112969436
70	0xbe65ff01	-0.22460558
71	0xbe593429	-0.21211304
72	0xbdb92f2a	-0.09042199
73	0xbdf717be	-0.12065075
74	0xbe6cd11c	-0.23126644
75	0xbe19af3f	-0.15008257
76	0xbe620c19	-0.22074927
77	0xbe2c1068	-0.16803133
78	0xbdd25257	-0.10269611
79	0xbe3ef21e	-0.18647048
80	0xbe6c9955	-0.23105367
81	0xbe52e348	-0.20594513
82	0xbe9afb99	-0.3027008
83	0xbe0f48aa	-0.13992563
84	0xbe5952d4	-0.21223003
85	0xbe095bd0	-0.1341393
86	0xbdb80770	-0.089857936
87	0xbe5220a3	-0.20520262
88	0xbe3b4061	-0.18286277
89	0xbe0cee33	-0.13762741
90	0xbe1c650d	-0.15272923
91	0xbd93ae6e	-0.07211004
92	0xbe4a7362	-0.19770578
93	0xbe7548a5	-0.23953493
94	0xbe72e605	-0.23720558
95	0xbe2baa9f	-0.16764306
96	0xbe83a003	-0.25708017
97	0xbe17f706	-0.14840326
98	0xbddee26a	-0.10883029
99	0xbd9f3318	-0.07773417
100	0xbdc012e2	-0.093786016
101	0xbdd8a3d9	-0.105781265
102	0xbe44d422	-0.19221547
103	0xbe82c988	-0.2554438
104	0xbe4988b9	-0.19681062
105	0xbe4384ed	-0.19093676
106	0xbe5edd5b	-0.21764128
107	0xbe31f6b7	-0.1737927
108	0xbe3a862b	-0.18215244
109	0xbe29fe28	-0.16600859
110	0xbe9ccfd5	-0.30627313
111	0xbe520e34	-0.2051323
112	0xbdb46389	-0.08808047
113	0xbe122c6b	-0.14274757
114	0xbe0b3870	-0.13595748
115	0xbdb27e98	-0.08715552
116	0xbe575b69	-0.21030964
117	0xbde807a1	-0.1132958
118	0xbe59cb7b	-0.21269028
119	0xbe3244ff	-0.17409132
120	0xbe626c84	-0.22111708
121	0xbe139adc	-0.14414543
122	0xbe20395c	-0.15646881
123	0xbe176a59	-0.14786662
124	0xbdbc976c	-0.09208569
125	0xbe48ab01	-0.19596483
126	0xbe463156	-0.19354758
127	0xbe4569a0	-0.19278574
128	0xbe36dd77	-0.1785792
129	0xbdde4204	-0.10852435
130	0xbe576e17	-0.2103809
131	0xbe181fa1	-0.14855815
132	0xbd8334f2	-0.06406583
133	0xbdf5e721	-0.12006975
134	0xbe0e7fc5	-0.13915928
135	0xbdcf91f0	-0.10135257
136	0xbe693f06	-0.22777948
137	0xbe1b2445	-0.15150554
138	0xbe826078	-0.25464225
139	0xbe5fb4b2	-0.21846274
140	0xbdd83ee3	-0.1055887
141	0xbe0fa120	-0.14026308
142	0xbe208d59	-0.1567892
143	0xbe0363d1	-0.12831046
144	0xbe313ff2	-0.1730955
145	0xbe77b997	-0.2419189
146	0xbe0131c5	-0.12616642
147	0xbe8bbc2f	-0.2729201
148	0xbe4cbab3	-0.19993095
149	0xbdce52c9	-0.10074384
150	0xbe53ec12	-0.20695522
151	0xbe12b3dc	-0.14326423
152	0xbdca513b	-0.09878775
153	0xbe0707c5	-0.13186558
154	0xbe7c25a1	-0.2462373
155	0xbe1b92cc	-0.15192717
156	0xbe38c298	-0.18042982
157	0xbe06f678	-0.13179958
158	0xbe0a32d5	-0.13495953
159	0xbd8fa2ec	-0.07013497
160	0xbde1aa26	-0.11018781
161	0xbe5f2671	-0.21792008
162	0xbe4592bf	-0.1929426
163	0xbe6bfa6e	-0.2304475
164	0xbe06d99b	-0.13168947
165	0xbe2c976f	-0.16854642
166	0xbe725fc2	-0.23669341
167	0xbe34987f	-0.17636298
168	0xbe20fbb9	-0.15721025
169	0xbe2c8bf8	-0.16850269
170	0xbe478b2a	-0.1948668
171	0xbe7faf5d	-0.2496924
172	0xbdb74b45	-0.089499034
173	0xbe042e05	-0.1290818
174	0xbddb9607	-0.10721975
175	0xbe1c7a90	-0.15281129
176	0xbd767c50	-0.060177147
177	0xbdce6d30	-0.100794196
178	0xbe76216d	-0.24036188
179	0xbe21d918	-0.15805471
180	0xbe2573d2	-0.16157463
181	0xbe3b5095	-0.18292458
182	0xbe29ff13	-0.1660121
183	0xbdc98de4	-0.098415166
184	0xbe0d3eae	-0.13793442
185	0xbda67a05	-0.08128742
186	0xbd9dcb81	-0.07704831
187	0xbda60221	-0.08105875
188	0xbe2fcb22	-0.17167333
189	0xbe0fc2a5	-0.14039095
190	0xbe738161	-0.23779823
191	0xbe234c70	-0.15947127
192	0xbe8f01a2	-0.27930933
193	0xbe86d40e	-0.2633366
194	0xbe48cb60	-0.19608831
195	0xbe23c28b	-0.15992181
196	0xbe0b1279	-0.13581266
197	0xbe2ce0eb	-0.16882674
198	0xbe5b1965	-0.21396406
199	0xbe33d186	-0.17560396
200	0xbe29e95d	-0.16592927
201	0xbd983770	-0.07432449
202	0xbe1e00a4	-0.15429932
203	0xbe111521	-0.14168216
204	0xbe14cb40	-0.14530659
205	0xbdbaceaf	-0.09121453
206	0xbe083c0a	-0.13304153
207	0xbe57627c	-0.21033663
208	0xbe016926	-0.12637767
209	0xbe34d4b2	-0.17659262
210	0xbdcfb4cc	-0.10141906
211	0xbe6860ba	-0.22693148
212	0xbe3a1b6b	-0.18174522
213	0xbe3e14f7	-0.18562685
214	0xbe4c8295	-0.19971688
215	0xbe00da40	-0.12583256
216	0xbe25cd04	-0.16191489
217	0xbd8f66c3	-0.07002022
218	0xbe746329	-0.23865952
219	0xbe1849d6	-0.14871916
220	0xbe0582cc	-0.13038176
221	0xbe253640	-0.16133976
222	0xbe42c0d5	-0.19018872
223	0xbe1dc65b	-0.15407698
224	0xbe373fc0	-0.17895412
225	0xbe3d4498	-0.18483198
226	0xbdcf6e70	-0.10128486
227	0xbe23a95f	-0.15982579
228	0xbe31ad71	-0.17351319
229	0xbd9bb97c	-0.07603738
230	0xbe0ddccb	-0.13853757
231	0xbe037ce6	-0.12840614
232	0xbdf78ba0	-0.12087178
233	0xbe4e84ff	-0.20167921
234	0xbe1a2024	-0.15051323
235	0xbe3848f3	-0.17996578
236	0xbdcfc136	-0.10144274
237	0xbdf7e252	-0.12103714
238	0xbd318ab1	-0.043345157
239	0xbe237ec7	-0.1596633
240	0xbe66ce99	-0.22539748
241	0xbda893d4	-0.08231321
242	0xbdb59797	-0.08866804
243	0xbe42b716	-0.19015154
244	0xbe566799	-0.20937957
245	0xbe9441e5	-0.28956524
246	0xbe35d32c	-0.17756337
247	0xbe3f7960	-0.18698645
248	0xbe16e58b	-0.14736001
249	0xbe16be52	-0.14721039
250	0xbe4c3e5b	-0.19945662
251	0xbe338d8f	-0.17534469
252	0xbe638c4f	-0.22221492
253	0xbe020bbe	-0.12699792
254	0xbe38a584	-0.18031889
255	0xbe4769f8	-0.19474018

net.1.running_mean f4 [256]
0	0xbd8149b9	-0.063128896
1	0xbb8c03ec	-0.0042729285
2	0x3cdb8d3e	0.026800748
3	0x3d071728	0.032981068
4	0x3cae5a6d	0.021283353
5	0x3d8c92e8	0.06863958
6	0x3ca5f33a	0.020257581
7	0xbd405966	-0.046960257
8	0xbc9d7ecc	-0.0192255
9	0x3ce4eb9e	0.027944382
10	0x3c8501f2	0.01623628
11	0x3cff202b	0.031143269
12	0x3d81afe6	0.06332378
13	0xbc1dd112	-0.009632366
14	0xbc347108	-0.011013277
15	0xbd907008	-0.07052618
16	0x3c038ce9	0.008029201
17	0x3ca64517	0.020296616
18	0x3dbd93e7	0.09256726
19	0xbb7f09e9	-0.003891582
20	0x3d2a69c9	0.04160479
21	0xbe2ea1a7	-0.17053853
22	0x3cba26c6	0.022723567
23	0xbcd1000c	-0.025512718
24	0x3dac58a7	0.084153466
25	0xbda80e73	-0.08205881
26	0x3d636f1e	0.05552589
27	0x3df5aa1d	0.11995337
28	0x3d1baa82	0.038004406
29	0xbd08448f	-0.033268508
30	0x3d6fe936	0.058572017
31	0xbe03812f	-0.12842248
32	0xbab2dc96	-0.0013646062
33	0xbcb061ef	-0.021531073
34	0x3c521c43	0.012824121
35	0xbc9ef7a5	-0.019405195
36	0x3d7e50cc	0.062088773
37	0x3c940c92	0.0180724
38	0x3db3b096	0.087739155
39	0x3d8257fa	0.063644364
40	0x3d981afb	0.07427021
41	0xbd76c3f4	-0.06024547
42	0xbca26ce3	-0.019827312
43	0xb93f7f60	-0.0001826263
44	0x3cd2696a	0.025685031
45	0x3ca80e3b	0.020514598
46	0x3c686a45	0.014185493
47	0x3c50c58b	0.01274241
48	0xbc00ab21	-0.0078533
49	0xbd0dae9b	-0.034590345
50	0x3df0a84a	0.117508486
51	0x3c8ef29a	0.017449666
52	0xbc929a84	-0.017895944
53	0x3d33a121	0.043854836
54	0xbdb1ae70	-0.086758494
55	0x3c90476d	0.017612183
56	0xbb53303d	-0.0032224797
57	0x3e0dc784	0.1384564
58	0x3c0efb49	0.008726903
59	0xbdb22db3	-0.08700123
60	0x3cbadb4c	0.022809647
61	0x3d55139c	0.052020654
62	0x3c2c4446	0.0105143245
63	0xbca33730	-0.019923776
64	0x3c6494b0	0.0139514655
65	0xbc497573	-0.0122960685
66	0x3b46b2df	0.0030319018
67	0xbdc341bb	-0.095340215
68	0x3cfd3cfd	0.03091287
69	0x3b07db2b	0.002073
70	0xbcde673a	-0.027148832
71	0x3d5075f3	0.050893735
72	0x3ca2c616	0.019869845
73	0xbbcee97c	-0.0063144546
74	0x3d1ff3a5	0.039050717
75	0xbde5ae82	-0.11214925
76	0x3d98ab8a	0.074545935
77	0x3da8483b	0.08216902
78	0xbb73616a	-0.003713692
79	0xbccef031	-0.025261017
80	0xbd0b4708	-0.034003288
81	0xbce0dfe5	-0.027450511
82	0xbd0aba6d	-0.033869196
83	0x3cc2f035	0.02379618
84	0xbd07c21a	-0.033144094
85	0xbc3809f4	-0.011232842
86	0x3c641ec7	0.0139233535
87	0xbda05251	-0.078282006
88	0x3bb9f9c4	0.0056755263
89	0xbcb3762e	-0.021906938
90	0x3db57f04	0.08862117
91	0xbe2a03c6	-0.16603002
92	0x3b6208c4	0.0034490088
93	0xbcd9a2b1	-0.026566835
94	0x3d4b9023	0.049698006
95	0xbd65219a	-0.055940248
96	0x3db58f2b	0.08865198
97	0xbc17bce4	-0.009261344
98	0x3d558a3b	0.05213378
99	0xbc968a30	-0.01837644
100	0x3e13fa48	0.14450943
101	0x3d96e78e	0.07368384
102	0xbd6dd114	-0.05806072
103	0x3db65390	0.08902657
104	0x3d8db26d	0.06918798
105	0xbe24a67c	-0.16079134
106	0x3db01e03	0.08599474
107	0xbd4f10e3	-0.050553214
108	0x3d6e3b22	0.058161862
109	0x3d4163aa	0.047214188
110	0xbe11147e	-0.14167973
111	0xbdbb694f	-0.091509454
112	0xbda6d020	-0.081451654
113	0x3d5c8239	0.053835128
114	0x3cfa2d6f	0.030539243
115	0x3d8595a8	0.06522685
116	0xbdd83ba7	-0.10558253
117	0xbcc5a63b	-0.024127116
118	0x3c806dbc	0.015677325
119	0x3bbd0401	0.0057682996
120	0x3d536f2d	0.051619697
121	0x3c0ca7ee	0.008584959
122	0x3d1049a4	0.03522648
123	0x3d7ed6e0	0.06221664
124	0xbc0cec47	-0.008601255
125	0x3dc66769	0.09687693
126	0x3cd4c5af	0.02597317
127	0x3d246c1a	0.040142156
128	0x3d11ac21	0.035564546
129	0xbe2e1e7b	-0.17003815
130	0x3dda5a86	0.10661797
131	0xbd827062	-0.063690916
132	0x3db9af4a	0.09066637
133	0xbcc560f5	-0.024094084
134	0xbe09b0b3	-0.13446312
135	0xbd078e7d	-0.03309487
136	0xba409f81	-0.00073479867
137	0x3c8fffd4	0.017578043
138	0xbd63ee43	-0.055647146
139	0x3d8ddbd1	0.06926692
140	0x3de879e8	0.11351377
141	0x3d7dc630	0.061956584
142	0x3e0d3955	0.13791402
143	0xbba8d66a	-0.0051525133
144	0x3aaa66fb	0.0013000661
145	0xbe11fe78	-0.14257228
146	0x3c18950f	0.009312882
147	0xbd7364d5	-0.059422333
148	0xbb892473	-0.0041852533
149	0xbdd179a9	-0.10228283
150	0xbdade2df	-0.08490538
151	0x3d3aed59	0.04563651
152	0x3da60159	0.08105726
153	0xbd197ce2	-0.037472613
154	0xbde2d9fb	-0.11076733
155	0xbdb6b9b6	-0.0892214
156	0xbda88c04	-0.08229831
157	0xbd22ef45	-0.039778966
158	0x3ba779ec	0.0051109698
159	0x3db9fd8e	0.09081565
160	0x3cf23d05	0.029570112
161	0xbce874ae	-0.02837595
162	0xbb86f68b	-0.0041187457
163	0xbcb2faab	-0.021848043
164	0xbe35403c	-0.17700285
165	0x3d6e80cb	0.058228295
166	0xbd29eb60	-0.041484237
167	0x3d80e963	0.06294515
168	0xbe67d7e5	-0.22640951
169	0xbcbefb1a	-0.023313094
170	0x3ce1301e	0.027488764
171	0x3c9e27bc	0.019306056
172	0xbc6ff172	-0.014644967
173	0xbcf961a1	-0.03044206
174	0x3cd2313b	0.02565824
175	0x3b7a8d04	0.0038231025
176	0x3e13b11d	0.14423032
177	0x3d57400e	0.05255132
178	0x3c832d98	0.016012952
179	0xbd3606a9	-0.044439945
180	0xbce6e71a	-0.02818637
181	0xbe1865c0	-0.14882565
182	0x3d0a9163	0.033830058
183	0x3d49c35f	0.049258586
184	0xbbf65dec	-0.0075185206
185	0xbd685926	-0.056725644
186	0x3bb69665	0.0055721276
187	0x3d346268	0.04403916
188	0x3cadf5ce	0.021235373
189	0xbceac380	-0.028657675
190	0xbc48a6ad	-0.01224677
191	0x3d0a12f8	0.033709496
192	0x3a1719f4	0.000576406
193	0xbb06bfcc	-0.0020561097
194	0x3d088ec2	0.03333927
195	0x3d991d95	0.074763454
196	0xbd06b816	-0.0328904
197	0x3c641799	0.013921642
198	0xbc90ffbc	-0.017700069
199	0x3da04adf	0.078267805
200	0x3c532cef	0.012889131
201	0x3d4775c0	0.04869628
202	0xbdbf7593	-0.093485974
203	0x3db81786	0.08988862
204	0x3b71ea66	0.0036913394
205	0x3e0c53ae	0.13703796
206	0xbd7439b6	-0.05962535
207	0xbb9dd015	-0.004816065
208	0x3b2f76f3	0.002677378
209	0xbbbe6046	-0.0058098165
210	0x3d4610da	0.048355915
211	0x3cf48692	0.029849324
212	0xbd8d914c	-0.06912479
213	0xbc0353c0	-0.008015573
214	0xbda3a45a	-0.07990332
215	0x3dc9f20a	0.098606184
216	0xbcde8af5	-0.02716587
217	0xbc22715c	-0.009914722
218	0xbdbe2e92	-0.09286226
219	0xbacb4c6a	-0.0015510444
220	0x3dd2b270	0.102879405
221	0x3cf1aaa9	0.029500322
222	0x3dc6530b	0.09683808
223	0xbd725685	-0.059164543
224	0x3bf3e66f	0.0074432413
225	0xbdad9236	-0.08475153
226	0x3e1bc6c8	0.15212548
227	0x3dcb5d92	0.099299565
228	0xbc1b6e37	-0.0094867265
229	0x3de6dd8c	0.112727255
230	0x3d578bc7	0.052623536
231	0x3d601703	0.054709446
232	0x3dc1bcad	0.09459815
233	0xbc75099d	-0.014955905
234	0x3cd12ce1	0.025534095
235	0x3ccad66a	0.024760444
236	0xbc330f33	-0.010928917
237	0x3d33e1e2	0.04391659
238	0x3cdd3aa4	0.027005501
239	0x3dac4b56	0.08412807
240	0x3db4f6fe	0.088361725
241	0xbd3382fb	-0.043826085
242	0xbc86c1c3	-0.016449815
243	0x3d36255e	0.04446923
244	0x3dadc43b	0.084846936
245	0xbd7da7c2	-0.061927564
246	0xbd887f7c	-0.06664941
247	0x3c151b6d	0.009100777
248	0xbd9ad690	-0.07560456
249	0xbd536859	-0.051613186
250	0xbcd2052a	-0.025637228
251	0x3d1784e6	0.036991976
252	0xbc8456c3	-0.016154652
253	0xbcff0686	-0.03113104
254	0x3ccb928d	0.024850154
255	0xbd0a5046	-0.03376796

net.1.running_var f4 [256]
0	0x3cbc2e96	0.022971433
1	0x3c4296ff	0.011876821
2	0x3c77803b	0.015106256
3	0x3ca5c1e0	0.020234048
4	0x3c85e20d	0.016343141
5	0x3c808f83	0.015693432
6	0x3c83c27e	0.016083952
7	0x3c8b6ff6	0.01702116
8	0x3c5cd811	0.013479249
9	0x3c816b8f	0.015798358
10	0x3c4570a9	0.012050786
11	0x3c7a6735	0.015283396
12	0x3c4d96e2	0.01254818
13	0x3c8b26a4	0.016986199
14	0x3c500eb1	0.012698815
15	0x3cf5fe03	0.030028349
16	0x3c92e6f9	0.017932402
17	0x3ca6bf12	0.020354781
18	0x3c8a7861	0.016903104
19	0x3ce44559	0.027865099
20	0x3c80cde8	0.015723184
21	0x3cf992f1	0.030465575
22	0x3c74f08f	0.014949932
23	0x3c7ffbc3	0.0156239895
24	0x3c9e3bd3	0.019315636
25	0x3c8a98f6	0.01691864
26	0x3c815dd1	0.015791805
27	0x3c5f2105	0.013618712
28	0x3c63616f	0.01387821
29	0x3c9156bc	0.017741553
30	0x3c1e186d	0.009649378
31	0x3c485681	0.012227655
32	0x3c94e1cf	0.01817408
33	0x3cc63bf9	0.024198519
34	0x3cb49249	0.02204241
35	0x3c81fccb	0.015867611
36	0x3cac192b	0.021008095
37	0x3c6a7935	0.014311125
38	0x3c32116c	0.0108684115
39	0x3c891e83	0.016738182
40	0x3c48bd9a	0.012252236
41	0x3c91bf36	0.017791372
42	0x3cdfcecc	0.027320288
43	0x3c353cc1	0.011061848
44	0x3c4d9876	0.012548557
45	0x3c8cf91c	0.017208628
46	0x3c61cfb4	0.01378243
47	0x3c76cf71	0.015064106
48	0x3c8323d5	0.016008297
49	0x3c79fe50	0.015258387
50	0x3c4fd9af	0.012686177
51	0x3c8aced3	0.016944325
52	0x3c62878b	0.013826261
53	0x3c780685	0.015138273
54	0x3ccc98a2	0.024975125
55	0x3c5a6a7d	0.013331053
56	0x3ce38395	0.027772704
57	0x3c97f258	0.018548176
58	0x3c4ac652	0.012376385
59	0x3c89256b	0.016741475
60	0x3c5de1f9	0.013542646
61	0x3c82a39e	0.01594716
62	0x3cc8890d	0.024479413
63	0x3c8dcd55	0.017309824
64	0x3c8a95eb	0.01691719
65	0x3c734f95	0.014850517
66	0x3c94726c	0.018120967
67	0x3cd2b775	0.025722245
68	0x3c62b130	0.01383619
69	0x3c954396	0.018220704
70	0x3cad7036	0.02117167
71	0x3c73e958	0.014887176
72	0x3c85b31c	0.016320758
73	0x3c82b588	0.015955701
74	0x3c665469	0.014058211
75	0x3c90a463	0.01765651
76	0x3c4691e1	0.012119741
77	0x3c52caa0	0.012865692
78	0x3c8c1314	0.01709894
79	0x3c7b3e27	0.0153346425
80	0x3cb248e5	0.021763274
81	0x3c491e9e	0.012275366
82	0x3c806cd3	0.015676891
83	0x3c127cd9	0.008940899
84	0x3cba7b7a	0.022763956
85	0x3c8b5ee0	0.017013013
86	0x3c4f2736	0.012643626
87	0x3c2f34c5	0.010693734
88	0x3cf6d436	0.030130487
89	0x3c74089a	0.014894629
90	0x3cafb89c	0.021450333
91	0x3c468a8a	0.012117991
92	0x3c4e4545	0.012589757
93	0x3cc5625d	0.024094755
94	0x3c320fd6	0.010868033
95	0x3ce1ed23	0.027578896
96	0x3c61b720	0.013776571
97	0x3c853599	0.016260909
98	0x3c56eda7	0.013118184
99	0x3c6a8655	0.014314254
100	0x3c7e4d49	0.015521356
101	0x3c6e1019	0.014530205
102	0x3c741b07	0.014899022
103	0x3c93a6d4	0.018023886
104	0x3c6930f1	0.01423286
105	0x3d1ba63f	0.03800034
106	0x3cb6e776	0.022327166
107	0x3ce352e8	0.027749494
108	0x3c308052	0.010772781
109	0x3c97be44	0.018523343
110	0x3cf8b35b	0.03035896
111	0x3cdab375	0.0266969
112	0x3c9539e9	0.01821609
113	0x3c905ff4	0.017623879
114	0x3c5130c2	0.012767972
115	0x3c249ec5	0.010047619
116	0x3cbd8953	0.02313677
117	0x3c542809	0.012948998
118	0x3c59a29b	0.013283397
119	0x3c7299fa	0.014807219
120	0x3c4aee3d	0.012385902
121	0x3ce6ec7c	0.028188936
122	0x3c5437ff	0.012952804
123	0x3c4716c0	0.01215142
124	0x3cb3b4f9	0.02193688
125	0x3c989a43	0.018628245
126	0x3c92e115	0.017929593
127	0x3c9cf0b0	0.019157737
128	0x3c674ed9	0.01411792
129	0x3cdfefe8	0.027336076
130	0x3cdc1325	0.026864598
131	0x3c587c41	0.013213218
132	0x3cae3b4f	0.021268515
133	0x3c754fc0	0.014972627
134	0x3c8acc82	0.01694322
135	0x3c71b969	0.014753678
136	0x3c376391	0.011193172
137	0x3c4e68ed	0.012598258
138	0x3c7aac4d	0.015299869
139	0x3c6f483b	0.014604623
140	0x3c8948d7	0.016758366
141	0x3c804030	0.015655607
142	0x3c79be98	0.015243195
143	0x3cd547ea	0.026035268
144	0x3c2293f1	0.009922967
145	0x3cc02b8b	0.023458263
146	0x3c6781a0	0.014130026
147	0x3ca4d007	0.020118726
148	0x3cb3ed13	0.021963632
149	0x3c8b1f94	0.016982831
150	0x3cbe3049	0.023216384
151	0x3c7afd90	0.015319243
152	0x3c9ee6f9	0.019397246
153	0x3c748e49	0.014926502
154	0x3c81cc8f	0.015844611
155	0x3cf893e0	0.03034395
156	0x3cac715c	0.021050148
157	0x3ce17d63	0.02752561
158	0x3c4de627	0.01256708
159	0x3c2931a8	0.01032678
160	0x3c5e9f54	0.0135877915
161	0x3cad6953	0.021168387
162	0x3d14327a	0.03618095
163	0x3c4ac63c	0.012376364
164	0x3cef0b71	0.02918026
165	0x3c9ccdf5	0.019141177
166	0x3c2d215a	0.010567034
167	0x3cb8f248	0.022576466
168	0x3cbbe604	0.022936828
169	0x3c84154b	0.016123435
170	0x3ca546bc	0.02017533
171	0x3cb9c6ba	0.022677768
172	0x3c437696	0.011930129
173	0x3c463ad3	0.012098986
174	0x3c8512eb	0.016244372
175	0x3c7090b9	0.014682942
176	0x3ce0f968	0.027462676
177	0x3c5e640f	0.0135736605
178	0x3cbd4a38	0.02310668
179	0x3c9fe4d1	0.019518288
180	0x3c7c5c81	0.015402914
181	0x3c807ef4	0.015685536
182	0x3ca472fd	0.020074362
183	0x3cb7ea8d	0.02245071
184	0x3c6b3de0	0.014358014
185	0x3c8f4958	0.017491028
186	0x3c4ac5bd	0.012376246
187	0x3c43e317	0.011955998
188	0x3c417372	0.011807309
189	0x3c275372	0.010212766
190	0x3cb007c3	0.021488076
191	0x3c9e8537	0.019350631
192	0x3c8dbf89	0.017303245
193	0x3c9d2d63	0.019186681
194	0x3c2c15b1	0.0105032185
195	0x3c7dbb73	0.015486586
196	0x3c886984	0.016651876
197	0x3c8196f6	0.015819054
198	0x3c4d3572	0.012524949
199	0x3c54c191	0.012985603
200	0x3c6b8813	0.014375704
201	0x3c9925d1	0.01869479
202	0x3cb4fe76	0.022093993
203	0x3c87f4c2	0.016596202
204	0x3cb50475	0.022096852
205	0x3cb56bfe	0.022146221
206	0x3c62ad63	0.013835284
207	0x3cf6882c	0.030094229
208	0x3c796e40	0.01522404
209	0x3ca05b7c	0.019574873
210	0x3c479ef9	0.012183898
211	0x3caea653	0.021319544
212	0x3cabebd7	0.02098648
213	0x3c7e6f86	0.015529519
214	0x3cd7cafb	0.026341906
215	0x3c52501f	0.012836485
216	0x3c8605a4	0.016360112
217	0x3c71cbb5	0.01475804
218	0x3d0ad076	0.03389021
219	0x3c7ff246	0.015621727
220	0x3c88af17	0.016685052
221	0x3c2bcda1	0.0104860375
222	0x3c89ab91	0.016805442
223	0x3d06210a	0.032746352
224	0x3c46de3c	0.012137946
225	0x3c5a2bdb	0.01331612
226	0x3c79a970	0.015238151
227	0x3cf7e24d	0.030259276
228	0x3c83ac25	0.016073296
229	0x3cef0407	0.029176725
230	0x3c7935cf	0.015210583
231	0x3c6de184	0.014519099
232	0x3c539b92	0.012915509
233	0x3c9218c8	0.017834082
234	0x3c547822	0.012968095
235	0x3c5d546b	0.013508896
236	0x3c5dd23e	0.013538895
237	0x3c9f4f84	0.019447096
238	0x3c40ca4a	0.0117669795
239	0x3c86887c	0.016422503
240	0x3c3cd214	0.011524696
241	0x3c8d50ce	0.017250445
242	0x3c831342	0.016000394
243	0x3c836a11	0.016041787
244	0x3c227187	0.009914762
245	0x3d0b46ce	0.03400307
246	0x3c62b2ec	0.013836604
247	0x3c561728	0.013067044
248	0x3c7d8b84	0.015475158
249	0x3c91c7ff	0.01779556
250	0x3c949fa4	0.018142529
251	0x3c805612	0.015666042
252	0x3c7d74e1	0.015469761
253	0x3c74a763	0.014932486
254	0x3ca47089	0.020073192
255	0x3c7171ad	0.014736575

net.4.weight f4 [128, 256]
0	0x3c291407	0.010319716
1	0x3db7ee28	0.089809716
2	0x3d6d11e5	0.057878394
3	0x3da51fab	0.08062681
4	0xbdc19207	-0.09451681
5	0x3dbb58a6	0.09147768
6	0x3d1f3d80	0.03887701
7	0xbd68d3d6	-0.056842647
8	0xbbfd072c	-0.007721802
9	0xbc01fbc6	-0.007933563
10	0x3d516e82	0.05113078
11	0xbce090c4	-0.02741278
12	0xbd040151	-0.032227818
13	0xbd4b7f36	-0.049681865
14	0xbdecaace	-0.11556016
15	0xbde807d2	-0.113296166
16	0x3d7d2fd9	0.06181321
17	0x3da4c5ea	0.080455616
18	0x3cea1700	0.02857542
19	0xbd038504	-0.032109275
20	0x3e0df6bb	0.13863651
21	0x3ca735c9	0.020411389
22	0x3dcb83b8	0.09937233
23	0xbd79bff5	-0.06097408
24	0x3db7e853	0.08979859
25	0xbe0e2022	-0.13879445
26	0x3d4d14af	0.050068554
27	0xbde24717	-0.110487156
28	0xbe276d67	-0.16350327
29	0xbdbf05f9	-0.09327311
30	0x3b741941	0.0037246498
31	0xbe0ba0e7	-0.13635598
32	0xbd9dcad1	-0.077047
33	0x3da62e00	0.081142426
34	0xbbf69ee9	-0.007526268
35	0x3ce9c935	0.028538326
36	0x3d9576c0	0.072980404
37	0x3c5e48dd	0.013567177
38	0x3d064333	0.03277893
39	0x3d27eef7	0.04099938
40	0x3df438f1	0.11924923
41	0xbda736de	-0.08164762
42	0x3d5b09a2	0.053475983
43	0xbd8155ce	-0.06315194
44	0xbd5252c3	-0.05134846
45	0x3e3499df	0.17636822
46	0x3d42623d	0.04745697
47	0x3d08c7c9	0.033393655
48	0x3d8f8cf9	0.0700931
49	0xbc15410a	-0.009109745
50	0x3e3b24be	0.18275735
51	0x3c94278d	0.018085266
52	0x3d25dc9e	0.0404936
53	0xbdeec13b	-0.116579495
54	0x3c4c83ff	0.012482642
55	0x3d3abbf1	0.04558939
56	0x3d82b68d	0.06382475
57	0x3d957f29	0.072996445
58	0xbce82f17	-0.028342767
59	0x3c159d08	0.009131677
60	0xbd30ba39	-0.043146346
61	0x3dab4026	0.08361845
62	0xbd375ead	-0.044768024
63	0x3d040c46	0.032238267
64	0xbca42250	-0.020035893
65	0xbdd548cc	-0.104142755
66	0x3a6b8501	0.00089843577
67	0xbd72e2a5	-0.059298176
68	0xbdd9ab05	-0.106283225
69	0x3d57848d	0.052616645
70	0x3dc30930	0.09523237
71	0xbca5228d	-0.020158077
72	0xbcfea870	-0.031086177
73	0x3d867181	0.06564618
74	0xbdc5c042	-0.09655811
75	0x3c82afea	0.015953023
76	0x3c961114	0.01831869
77	0xbd78244c	-0.06058149
78	0xbcc0c3a2	-0.023530785
79	0x3a08c7b0	0.0005217744
80	0xbd0fb0a3	-0.035080563
81	0x3e228619	0.15871467
82	0xbdc2a2e7	-0.095037274
83	0xbdc3b2c2	-0.0955558
84	0x3d81df2b	0.06341394
85	0xbbf55a38	-0.0074875616
86	0xbe27c844	-0.16384989
87	0xbd8d7bb8	-0.06908363
88	0x3ddc59b1	0.10759295
89	0x3dbd039b	0.09229203
90	0x3d61b834	0.05510731
91	0xbd1ef82e	-0.0388109
92	0xbc9ec907	-0.019382967
93	0x3d4524c3	0.04813076
94	0xbc240d4e	-0.010012938
95	0x3de94047	0.11389213
96	0x3d6269fc	0.055276856
97	0xbe062bc2	-0.1310263
98	0xbd09ea2c	-0.03367059
99	0x3c9b6b3e	0.018972035
100	0xbcf4595f	-0.029827772
101	0x3b322fa3	0.0027189038
102	0xbd5051a7	-0.05085912
103	0xbb7be9ce	-0.003843892
104	0xbdd54133	-0.104128264
105	0xbd3f5e71	-0.046720926
106	0x3cdec80f	0.027195005
107	0xbdc8ad2c	-0.09798655
108	0x3cee6e18	0.029105231
109	0x3cd76985	0.026295433
110	0x3d32d2d9	0.04365811
111	0x3d01e1cf	0.03170949
112	0xbd92dabe	-0.07170628
113	0xbcc516df	-0.024058757
114	0xbc3f2fb7	-0.011669091
115	0xbe48bc9d	-0.196032
116	0xbc802f3c	-0.015647523
117	0xbe162b3d	-0.14664932
118	0x3de0daa6	0.10979204
119	0xbcb3dbe4	-0.021955438
120	0x3d90266f	0.070385806
121	0xb98e9e8b	-0.00027202474
122	0x3bb8ada7	0.0056359353
123	0xbc95a855	-0.018268744
124	0x3dc65bbb	0.09685465
125	0x3e57ff57	0.21093498
126	0xbd377336	-0.044787608
127	0xbdb0a1f5	-0.08624641
128	0xbd7404e2	-0.05957497
129	0xbdda991c	-0.106737345
130	0x3e159a50	0.14609647
131	0x3d1eeb23	0.038798463
132	0x3bbe14b5	0.0058008083
133	0x3d2f2840	0.042762995
134	0xbddfefc1	-0.10934401
135	0xbe0b83f3	-0.13624553
136	0x3d618a14	0.055063322
137	0x3d0013d9	0.03126893
138	0xbc6e51c3	-0.014545861
139	0x3b3571fb	0.0027686346
140	0xbd39633d	-0.045260657
141	0xbd5b68f4	-0.053566888
142	0x3da6e646	0.0814939
143	0xbd57688d	-0.05258994
144	0xbe5c331c	-0.21503872
145	0xbe253840	-0.16134739
146	0xbbe46f8b	-0.006971305
147	0xbd64bad3	-0.055842232
148	0x3dabc87d	0.083878495
149	0xbd2cb2b7	-0.042162623
150	0xbd02c211	-0.031923357
151	0xbdb8ad71	-0.09017456
152	0x3dd78f7b	0.105254136
153	0x3cba096a	0.022709567
154	0xbd05a222	-0.032625325
155	0xbd4b94ce	-0.049702458
156	0x3ad93d80	0.0016574115
157	0xbe06ac06	-0.13151559
158	0xbd3356bf	-0.0437839
159	0x3c6ddc5a	0.014517868
160	0x3d21de37	0.03951856
161	0x3cb4b6ad	0.022059763
162	0xbc2ced4c	-0.010554623
163	0x3d19efc8	0.03758219
164	0xbd29e128	-0.04147449
165	0x3c5109cf	0.012758686
166	0xbd1b1c3a	-0.037868716
167	0x3dcb8d19	0.099390216
168	0xbe06adbe	-0.13152215
169	0xbd68727b	-0.056749802
170	0xbd188c3b	-0.03724311
171	0x3d492f24	0.049117222
172	0x3d278cd7	0.0409058
173	0xbdb7fdf7	-0.08983987
174	0xbdb8441c	-0.08997366
175	0x3c8f429d	0.017487818
176	0x3cf24d3a	0.02957784
177	0xb9d6233f	-0.0004084352
178	0xbd51ecdf	-0.05125129
179	0xbd291ced	-0.04128735
180	0xbc8b6ec5	-0.017020592
181	0xbe162b11	-0.14664866
182	0xbc7c955f	-0.015416472
183	0xbda2c5d5	-0.0794789
184	0xbd9d33de	-0.076759085
185	0xbc360259	-0.011108958
186	0x3c91cce2	0.017797891
187	0xbc287ba0	-0.010283381
188	0xbd90039b	-0.07031938
189	0xbe072526	-0.13197765
190	0xbdd3e794	-0.103469044
191	0x3cdf7164	0.027275749
192	0x3deb7855	0.11497561
193	0x3e030baa	0.12797418
194	0x3d9451e2	0.072421804
195	0x3ca35f3f	0.019942878
196	0xbe0d5976	-0.13803658
197	0xbc47a5bc	-0.01218551
198	0xbd6c7c6d	-0.05773585
199	0x3a11cbde	0.00055616896
200	0xbdc9583f	-0.09831285
201	0x3d9c0d84	0.076197654
202	0xbbbbfa35	-0.005736614
203	0x3dfe344f	0.12412321
204	0xbd2ecb33	-0.042674255
205	0xbced7b30	-0.028989404
206	0xbe095f74	-0.13415319
207	0xbbf0d8a4	-0.0073500443
208	0xbdfe88c1	-0.124284275
209	0x3e0c316a	0.13690725
210	0xbb1f9344	-0.0024349252
211	0xbcd1fce6	-0.025633287
212	0xbdf2bd0d	-0.11852465
213	0x3d0f1a92	0.03493745
214	0x3e180458	0.14845407
215	0xbe21b32f	-0.1579101
216	0xbc2a6caf	-0.010401889
217	0xbe435ab7	-0.19077574
218	0x3db79dc5	0.08965639
219	0xbd7ca7a2	-0.061683305
220	0xbdc6af9b	-0.09701463
221	0xbde70a8a	-0.11281307
222	0xbe064b3d	-0.13114639
223	0x3d3d0744	0.046149507
224	0xbddd499d	-0.10805056
225	0xbc9d266c	-0.01918336
226	0x3d35df0e	0.044402175
227	0x3e44789c	0.19186634
228	0xbe0cc066	-0.13745269
229	0x3db5a657	0.088696174
230	0xbe2ff82e	-0.17184517
231	0xbd43db04	-0.04781629
232	0xbc356d3c	-0.011073407
233	0xbda645a7	-0.08118754
234	0x3bfa6dda	0.00764249
235	0xbda4b6ff	-0.08042716
236	0xbce039b7	-0.02737127
237	0x3d8bfee2	0.068357244
238	0xbdacde60	-0.08440852
239	0x3c8dc589	0.017306106
240	0x3d156211	0.036470477
241	0xbe13be8f	-0.14428161
242	0xbd811afe	-0.063039765
243	0x3a60f551	0.0008581477
244	0xbdeddc8b	-0.11614331
245	0x3d07422a	0.033022083
246	0xbd005bf1	-0.031337682
247	0x3d7f4c9c	0.06232892
248	0x3e0141d2	0.12622765
249	0x3dbb7de9	0.09154875
250	0xbcbe1413	-0.023202932
251	0xbe00b150	-0.1256764
252	0xbd240eda	-0.040053226
253	0x3d1027da	0.035194255
254	0xbd94627e	-0.072453484
255	0xbd94918b	-0.072543226
